Source code/python/onnxConvert/modelDynamic_ours_256x256.onnx (onnx, 837193 bytes, 15 tensors)

first_part.0.weight f4 [64, 1, 3, 3]
000000 44 5b cf bd 0f d6 53 3d af 23 f5 3b 01 ac 89 bb
       -0.101248294 0.051717814 0.0074810605 -0.0042014127
000010 5b 57 15 3d 1f 47 5d 3d 29 54 29 3c ad f5 ab 3c
       0.03646026 0.054022904 0.010335007 0.02099117
000020 e8 c3 0b bd c7 71 0a 3b 74 64 44 3d 99 48 38 3d
       -0.034122378 0.0021124945 0.047947362 0.04499111
000030 c5 e5 c1 bd 6d fc 59 3d 36 95 ee 3d 31 b3 d2 bd
       -0.09467653 0.053219248 0.116495535 -0.10288084
000040 96 0e e5 bd 4e a4 94 bd a2 68 0e 3c 0b fe 96 3d
       -0.11184423 -0.07257901 0.008691939 0.073726736
000050 d9 e6 da 3c 66 5e f5 3b fc e9 09 be b9 2c 0f bc
       0.026721405 0.00748806 -0.13468164 -0.00873869
000060 d3 41 3d 3d 37 1f fc 3c 5c 12 1c 3d 22 3f 86 bd
       0.046205353 0.030776603 0.038103446 -0.065550104
000070 b8 f3 7e 3d 4e 34 72 bd 15 2c 86 3d c1 ba 5d 37
       0.062244147 -0.059131913 0.06551377 1.32161085e-05
000080 d1 60 59 3d d8 ed 40 bd 09 ec 94 bd 40 1c 4f 3c
       0.053070847 -0.047101825 -0.07271583 0.012641013
000090 59 4b 61 bc 93 7d 76 3c f4 21 60 3d dd 75 b2 3c
       -0.013750874 0.015044588 0.05471988 0.021784717
0000a0 14 51 86 3c c7 11 82 bd de 45 6b 3d 61 a1 2b 3d
       0.016396083 -0.06351047 0.057439677 0.04190195
0000b0 69 dd 1c bd 06 af 7e 3b 83 a8 14 bb e7 35 3d bc
       -0.03829709 0.0038861646 -0.0022683449 -0.011548496
0000c0 bf e2 1b bd ea 65 85 3d ce 2b 27 bd ea ac 34 bc
       -0.03805804 0.06513579 -0.04081326 -0.011027554
0000d0 dd 15 16 bd 6d 3b 99 bd a4 9c 13 3d 06 3c d5 bb
       -0.036641944 -0.07482038 0.036038056 -0.0065073995
0000e0 11 92 d0 3c 96 2f 8a 3d 9e 04 9f bd c1 ae 03 3d
       0.025460275 0.067473575 -0.077645525 0.03214908
0000f0 27 ff cc bd 35 63 18 3d 4f 25 b2 3d 39 66 6b 3d
       -0.10009604 0.037203986 0.08698522 0.057470534
000100 58 63 dd 3d f2 4d 12 bd 57 32 82 bd 60 89 b9 bd
       0.10809964 -0.035718866 -0.06357258 -0.09059405
000110 ed fe ff bc 75 e4 9c 3d c4 d9 a1 bc 00 19 b5 3d
       -0.031249488 0.07660762 -0.019757159 0.08842659
000120 d5 c3 a5 3d 8f a5 b5 bc c3 10 49 3d 76 5b de 3c
       0.080939926 -0.022173671 0.04908825 0.027143221
000130 ff c5 fe 3c e2 9e 3f 3c e7 79 66 3d 37 b2 2d bd
       0.031100271 0.011695595 0.0562686 -0.042406287
000140 0a 53 83 3d cb 54 5e bd ba a8 7f bd a6 bc fa bc
       0.06412323 -0.054280084 -0.06241677 -0.030607533
000150 96 88 2c bd 6c f5 99 bc 26 8b 39 3c cc 3c 09 3d
       -0.042122446 -0.018793784 0.0113246795 0.033505246
000160 65 1e b1 bd 5d 9e 4b 3d e8 07 b2 3b 84 11 5c bd
       -0.086483754 0.049711574 0.0054330714 -0.05372764
000170 ba f1 f8 3b d7 d0 bc bc 6f 6d 3e bc 14 a3 5d bb
       0.0075971754 -0.023048801 -0.011622771 -0.0033819126
000180 37 3c c0 bc fd 77 b0 3c 33 e7 06 be c8 09 4c bd
       -0.023466213 0.02154159 -0.13174133 -0.049814016
000190 ed d9 ad bd bf e6 ae bc 6f 95 41 3c b9 a1 19 bd
       -0.08488832 -0.021350263 0.011815413 -0.037507746
0001a0 1e e5 91 bc 3f 7f 30 3d 52 64 ce 3a 89 3c 16 bd
       -0.017809447 0.0430901 0.001574645 -0.036678825
0001b0 03 9e 1b bc 3d a3 a9 3d 27 3e 93 3d d1 d4 05 bc
       -0.009498122 0.08283088 0.07189589 -0.008168415
0001c0 42 f1 00 bd 5e fd 9b bd 49 af d2 3d 83 95 9a 3c
       -0.03148008 -0.07616685 0.10287339 0.01887012
0001d0 16 4d 9b bd 6d f3 a8 bd 66 b7 92 bc 2d de a2 b9
       -0.07583062 -0.08249555 -0.017909717 -0.00031064582
0001e0 f2 cd 7b bc 67 53 1f 3d 39 1d 82 bc 34 02 61 3d
       -0.015368925 0.038897898 -0.015883075 0.05493374
0001f0 c9 61 eb 3d e1 5c b6 bc e7 de 9d bb e5 54 3e bd
       0.114932604 -0.022261085 -0.004817832 -0.04646768
000200 6b 15 41 3d 90 f7 e7 3c 4d 46 6c 3d 59 6b 8c 3d
       0.047139566 0.02831629 0.05768423 0.068564124
000210 e4 cc cc bd 9b f2 bc bb 8b 2b 0f 3e a0 89 8b 3d
       -0.10000017 -0.0057662255 0.13981454 0.06813359
000220 f1 98 68 bc 1d aa 2c bd 27 85 e5 bc fe e4 47 3d
       -0.01419662 -0.04215442 -0.028017594 0.04880237
000230 c9 af 3d 3d 4f 05 ee 3d f7 18 b3 3d a0 a4 6d 3b
       0.04631022 0.11622106 0.08744996 0.0036261454
000240 53 1a 39 3d bd 24 1e bd 06 1b 1f bc ed 25 97 3b
       0.04519112 -0.038609255 -0.009711033 0.0046126754
000250 be 17 0e 3c 62 71 e0 bd ae 92 ab 3b b0 7f d6 3b
       0.008672653 -0.10959126 0.0052359914 0.0065459833
000260 72 3f 24 bc 26 75 c1 bd 9a 7c 56 3d 2c e8 c2 3c
       -0.010024892 -0.094461724 0.052364923 0.023792349
000270 98 bd 1e 3e 22 7e 9a 3d 0f 9c a5 bd 60 ce a8 bd
       0.15502012 0.07543589 -0.080864064 -0.08242488
000280 93 57 8f 3c 81 e4 8f 3d 15 71 51 3c 41 bd ea 3c
       0.017497813 0.070260055 0.0127833085 0.028654696
000290 51 3e c7 bd 17 f7 30 3d a2 91 6c 3d dd 34 d7 3c
       -0.09728683 0.043204393 0.057756074 0.026270324
0002a0 73 05 fe bc c7 8c 95 3b fd 5c 54 bd b4 bb 90 3d
       -0.031008458 0.004563901 -0.051846493 0.070670515
0002b0 e1 9c d5 3d 5a 1a fe bd 91 65 ce 3b 37 cb 0f 3d
       0.10430313 -0.1240737 0.0062987288 0.03510591
0002c0 5e e3 28 3d 06 04 9b 3c eb 67 15 bc f9 79 71 3c
       0.04123246 0.018922817 -0.009119014 0.014738553
0002d0 ee 47 b1 bd 4a 7c d7 3a 7c 8c a6 bd 6d bb 60 3d
       -0.086562976 0.0016440239 -0.08132264 0.054866243
0002e0 12 8b 75 bd f7 a7 b5 bd 0d 37 9e bc b1 dd 32 3c
       -0.05994708 -0.088699274 -0.01931336 0.010917113
0002f0 14 fd 92 3c 02 28 17 3e e9 c6 2f 3d 89 72 4a bd
       0.017942943 0.14761356 0.042914305 -0.049425635
000300 42 b3 61 3d 14 cb 88 3a da 6d 04 be 89 ad 4b 3d
       0.055102594 0.0010436499 -0.1293253 0.049726043
000310 ae 67 a0 3d 2e d4 2c bd 39 7a 2a bd 15 20 84 ba
       0.07832275 -0.042194538 -0.041620467 -0.0010080362
000320 75 86 40 bd 2e 61 75 bd 02 44 df bd d3 af c6 3d
       -0.04700323 -0.05990713 -0.10901643 0.097015046
000330 ce 4b 80 bd b1 99 b3 3c 69 ea c1 bd fc 42 84 bd
       -0.062644586 0.021923872 -0.09468538 -0.06458089
000340 0c 82 bb 3d ce f3 92 3a c7 33 89 3d f4 8d 53 3c
       0.09155664 0.0011211575 0.06699329 0.012912262
000350 90 e2 89 3d 21 2e 8f 3c 63 0b c8 bc 3e b8 99 bc
       0.067326665 0.01747805 -0.024419492 -0.018764611
000360 73 ce 81 bd 47 82 da 3b 30 26 9c 3d 45 55 9c bd
       -0.06338205 0.0066683623 0.07624471 -0.07633451
000370 2b 94 5c 3d 37 f3 25 3d 94 47 0b be 86 fa d3 bd
       0.05385224 0.04051515 -0.13601524 -0.10350518
000380 52 91 4b bd 75 48 65 3c 2b 2d c7 3c 2b 80 0f bd
       -0.049699135 0.013994326 0.02431353 -0.03503434
000390 b3 98 fb 3d c2 d4 88 bc be 0c 95 bd 2d 0c 9a 3c
       0.122849844 -0.016703013 -0.07277821 0.018804634
0003a0 a7 c4 4b bc b6 55 b9 bc 79 fb 18 bd 29 15 31 3d
       -0.012437022 -0.022623878 -0.037349198 0.04323307
0003b0 c3 06 08 bd 60 42 bf bd 4c 2a f0 3c 51 b9 c8 3c
       -0.033209573 -0.09338832 0.029317044 0.024502428
0003c0 08 b3 05 3d ca eb b1 3d 15 8f c7 3d 56 f4 10 bd
       0.03264144 0.08687551 0.097440876 -0.035389267
0003d0 65 77 59 bd 99 7a 90 3d e7 c7 5f 3b 9d 5f b8 bb
       -0.05309238 0.07054634 0.003414625 -0.0056266324
0003e0 0a a7 b4 bd 19 f9 ae 3c a3 d0 06 bd 83 cb 39 bd
       -0.08820923 0.021359013 -0.032913815 -0.0453601
0003f0 fb 24 a4 3c 16 0a 95 bd 60 86 5c bd 96 86 07 3d
       0.020037165 -0.07277314 -0.053839087 0.033087336

convup1.weight f4 [32, 64, 3, 3]
000000 fd 3c 6c bd ec 1f a7 3d 57 8f ee 3b 66 32 d9 3c
       -0.05767535 0.081603855 0.007280271 0.02651329
000010 a2 e0 a6 bb 06 91 80 3b 15 4e df bc ef 7e a2 bd
       -0.0050926963 0.003923538 -0.027258912 -0.07934367
000020 57 ed 93 bd f2 38 35 bd 25 48 9f bd 56 e5 1a 3d
       -0.07223003 -0.04424376 -0.07777432 0.037816368
000030 75 ed cc 3d 8e fb bd 3d c2 38 ef 3d fe c3 be 3a
       0.10006229 0.09276496 0.116807476 0.001455426
000040 38 ff 49 3d a3 5d 3d 3e cb 5e 04 bd 2e 68 08 bc
       0.04931566 0.18492751 -0.032316964 -0.00832562
000050 cf 1a 9a bd 3c 77 60 3d de bd 26 be 01 fd 99 3d
       -0.075246446 0.05480121 -0.16283366 0.0751896
000060 6a 18 d4 bd 74 30 e3 bd 2a b0 72 3d a7 38 2b 3d
       -0.10356219 -0.11093226 0.059250034 0.041802075
000070 cf 34 ce bd 4a 5d bf 3c 4e 64 8a bd e5 56 72 bd
       -0.10068666 0.023359913 -0.06757413 -0.0591649
000080 4c 21 14 3c 62 ee 1e 3e 42 e5 40 3e e9 92 e8 3c
       0.009041142 0.15520623 0.18837455 0.028390365
000090 4a 12 63 3d 15 93 73 3e d7 21 c7 3d 34 23 52 bd
       0.055437364 0.23786576 0.09723251 -0.051303104
0000a0 f4 74 33 bc 67 57 ee bd e6 f5 1f bc 23 0d 78 3e
       -0.010953177 -0.116377644 -0.009763217 0.24223761
0000b0 55 62 f3 bb 25 6e 22 3b 33 e7 94 bd d5 e6 14 be
       -0.0074274936 0.002478489 -0.0727066 -0.1454118
0000c0 b1 37 ab 3d b0 e1 ef bd 38 62 22 bb a2 ff 99 bd
       0.08360232 -0.11712968 -0.0024777781 -0.07519461
0000d0 d4 9b 30 bd ea f6 c7 bc 12 c1 5c be b1 39 91 3c
       -0.04311736 -0.02440973 -0.21558025 0.017727705
0000e0 93 72 0c be 7c 76 83 3d ce 4a 1b be 87 3e 02 3c
       -0.13715582 0.064190835 -0.15165254 0.007949478
0000f0 2f d2 1a bd 5d 66 85 bc dd a9 0e 3e 93 f0 90 3d
       -0.037798103 -0.016284162 0.13931985 0.07077136
000100 62 d8 66 bd 0c de af bd 33 d2 f6 bd 0d fb 2f 3d
       -0.056358702 -0.08587274 -0.12051811 0.04296403
000110 c3 8e ce bd e3 8a 48 3d 53 38 e7 3d 24 04 5c bd
       -0.100858234 0.048960578 0.1129004 -0.053714886
000120 09 74 be 3c 2c 59 6b bd 55 d2 e5 bb a3 66 fc 3c
       0.02324869 -0.057458088 -0.007013599 0.03081066
000130 6e b2 76 3c d4 d6 9a 3c b9 d4 47 be 21 10 3c 3d
       0.015057189 0.018901266 -0.19514741 0.04591382
000140 ab 83 5f 3c 3f fd 46 3d 01 bd 09 3d 91 dd 26 bd
       0.013642232 0.048581358 0.033627514 -0.040738646
000150 50 a0 4b 3c e5 74 1b 3d 55 5f 52 bd 45 52 bc bd
       0.012428358 0.037953276 -0.051360447 -0.09195379
000160 eb 91 a8 bc cb d0 db bc 9d 56 0d 3d d6 f7 79 3e
       -0.020577392 -0.026832959 0.03450643 0.24410948
000170 ac 43 ad bd d1 d0 7b 3c 2c 23 67 3d f1 1b ad bd
       -0.08460173 0.01536961 0.056430027 -0.08452595
000180 fa ab 29 be 20 f6 83 3d c1 b6 b4 3c 30 0e 85 3d
       -0.1656951 0.06443429 0.0220598 0.06496847
000190 f5 2e eb bc 89 98 50 3d 7f 7e 37 bd ac 14 17 bd
       -0.028708914 0.05092672 -0.04479837 -0.03688495
0001a0 42 3d 88 3c ce ce b9 3d 58 f1 ec 3d 50 e4 8d bd
       0.016630773 0.09072648 0.1156947 -0.06928313
0001b0 c8 6a 09 3d 4c ba b2 bb 8e d4 0d be 63 b4 42 bc
       0.0335491 -0.005454337 -0.13850614 -0.011883828
0001c0 36 48 2b 3e dd 6f 0c 3e aa c1 b3 3d ab 83 f7 3d
       0.16726765 0.13714547 0.08777173 0.120856605
0001d0 ee ca 9f 3b 84 02 49 bc c3 3e f2 bd fd e3 8b 3c
       0.004876486 -0.012268666 -0.11828377 0.017076487
0001e0 17 ab 41 be 81 35 0d bd 5d 9f fa bd d7 93 a1 3c
       -0.18912922 -0.034474853 -0.122374274 0.019723816
0001f0 1f e2 e1 bd 10 9a 04 bc 19 99 c9 bd 41 b3 59 3d
       -0.11029457 -0.008093372 -0.09843654 0.053149465
000200 53 6f 9b 3d 8e a8 3e 3c fe 86 ee bb 6c 78 b8 bc
       0.07589593 0.011636866 -0.007279276 -0.02251836
000210 18 32 e6 3c 20 5a 8d 3d a6 ce a3 3b d7 46 29 be
       0.028100058 0.069019556 0.0049989996 -0.1653093
000220 34 09 9d 3d ff 80 0d 3c 93 44 70 3d a5 3a d1 3c
       0.07667771 0.008636712 0.058659147 0.02554066
000230 7e ec 4f 3c 63 6e ae bd 88 e7 4d 3b 4d 2a 80 bd
       0.0126906615 -0.08517148 0.003141852 -0.06258068
000240 96 a4 48 be 89 8a 8e bd 80 71 cf 3d cc 6b d4 3a
       -0.19594035 -0.06960017 0.1012907 0.0016206442
000250 40 26 36 bd 01 0f 05 3d 8d 1e 3d 3d bb 21 07 be
       -0.04447007 0.032485012 0.046171714 -0.13196461
000260 33 4a 8c 3d 8a c8 bb 3d cd 14 b4 bc bb 85 8f bd
       0.0685009 0.09169109 -0.021982575 -0.07007929
000270 52 1e f4 3c ef 88 5d bd fc e7 3f bd 39 25 14 be
       0.029799614 -0.05408567 -0.046852097 -0.14467324
000280 c4 23 a1 3d 21 83 22 3d 2b 16 3d bd 16 e7 a5 3d
       0.0786815 0.039675836 -0.04616372 0.08100717
000290 28 9e ae bc 91 2e a7 3c 36 76 63 bd 7b 40 78 3d
       -0.02131565 0.020407947 -0.055532657 0.06060837
0002a0 26 57 5d bd 0d 85 b4 3c c9 dc c0 bc a7 44 0f be
       -0.05403819 0.0220361 -0.023542779 -0.13991033
0002b0 bc 39 89 3d 79 fd 54 3c c3 07 eb 3c 27 1a 09 3d
       0.06700465 0.012999886 0.028690225 0.033472206
0002c0 2a f5 ac 3d 38 83 ba bd f1 42 8c 3d ab 84 9a 3d
       0.08445199 -0.09107059 0.068487056 0.07544836
0002d0 7b a0 b2 bd 8e 03 21 bd 81 76 22 bd 30 19 2a be
       -0.087220155 -0.03931003 -0.039663795 -0.16611171
0002e0 66 80 2e be eb 48 1a 3d db 94 5a be 43 cd 8e bc
       -0.17041168 0.037667196 -0.21345846 -0.01743186
0002f0 f0 ef ba 3d fb c1 04 3e 95 c2 02 bd 38 0a 3e bd
       0.09127796 0.12964623 -0.03192385 -0.046396464
000300 83 1f d8 bd 9f d7 d6 3d 9a 5b 9d 3d 5b cf 59 3d
       -0.105528854 0.10490345 0.07683487 0.053176265
000310 20 cd 99 3b 12 e8 a3 bd 29 9d 46 bb 3e 26 52 3d
       0.0046936423 -0.08003248 -0.0030306077 0.051306
000320 f0 61 f8 bc a3 6a 02 bc c8 11 a6 3c 92 0d 8b bd
       -0.030320138 -0.0079599945 0.02027215 -0.06789698
000330 49 47 24 bd 19 1a 4a 3d 76 8e 2d be b2 62 12 3d
       -0.040107045 0.049341295 -0.16948876 0.035738654
000340 34 a8 06 bc 5a 25 cc bd f6 b9 81 3d 34 c6 47 3d
       -0.008218814 -0.09968062 0.06334297 0.048773006
000350 b9 1b 8d bc 46 34 25 3d 8f 50 ae bb 86 45 13 be
       -0.017225133 0.040333055 -0.005319662 -0.1438199
000360 3b 0f c6 3a 18 06 a1 ba da bd 2e 3a 19 e9 36 3d
       0.001511074 -0.0012285141 0.00066658633 0.044655893
000370 41 03 ea 3d 83 55 e3 bd 84 a3 15 3c 5c 05 0c bd
       0.11426402 -0.111002944 0.009133223 -0.0341848
000380 6a f6 b4 bd a8 18 5e bd 30 57 5f bd 58 fe 10 be
       -0.08836062 -0.054222733 -0.054526508 -0.14159524
000390 66 f3 55 be 9b f2 07 3d e8 42 21 3c ef ad c7 bb
       -0.2089363 0.03319035 0.009842612 -0.0060937325
0003a0 7f 43 55 bd 67 9b 15 bc e1 d0 bc bd 87 b7 51 3c
       -0.052066322 -0.009131289 -0.09219528 0.012800104
0003b0 85 74 d5 bb 7d 06 85 3c 6c a8 0f 3d ef 8d 75 3d
       -0.0065141344 0.016238445 0.03507273 0.05994981
0003c0 74 01 42 ba 89 03 d4 bc 35 32 2a bd dc 9a 03 3c
       -0.0007400729 -0.025880592 -0.041551787 0.008032527
0003d0 e7 a1 c0 bd 92 6f 9a bc 71 d0 2b 3d b1 79 cf bd
       -0.094058804 -0.018852029 0.041946832 -0.10130633
0003e0 04 a2 04 bd 0d 12 16 3d bd a9 0f bd 1f eb 12 be
       -0.032381073 0.03663831 -0.035073984 -0.14347504
0003f0 2c 67 a5 bd a6 01 be 3d 90 68 01 3e 1a f9 cc bd
       -0.08076319 0.09277658 0.12637544 -0.1000845

convup2.weight f4 [16, 32, 3, 3]
000000 10 7e bc bb bd 26 ca bb b1 9c 8e bb 51 ff c2 bb
       -0.0057523325 -0.0061691687 -0.004352175 -0.0059508462
000010 ff 2d c3 bb 1f a3 96 bb 71 78 d9 bb 46 1c 8c bb
       -0.005956411 -0.0045970823 -0.006636672 -0.0042758314
000020 1d c8 a8 bb d3 b8 b8 bb b2 d4 b9 bb 1d 9f a3 bb
       -0.0051508085 -0.005637267 -0.005671107 -0.004993333
000030 cf 48 bf bb 14 b7 c8 bb dc a4 be bb c7 a0 e6 bb
       -0.005837537 -0.0061253402 -0.0058179926 -0.007038209
000040 2c 83 9d bb 68 57 d8 bb 47 12 af bb 76 6e 98 bb
       -0.0048068967 -0.0066022165 -0.005342755 -0.00465184
000050 68 ea aa bb 80 8d e5 bb 81 66 d5 bb 77 13 b3 bb
       -0.0052159317 -0.0070053935 -0.0065124636 -0.005464967
000060 a7 0a a8 bb 39 6f c7 bb c7 fc ae bb 7c c1 c8 bb
       -0.005128223 -0.006086257 -0.005340192 -0.0061265808
000070 ca 24 d6 bb fa 67 cc bb 5a 68 c1 bb 89 ab d1 bb
       -0.0065351473 -0.006237981 -0.0059023323 -0.0063986224
000080 ef f7 c4 bb a1 bb e8 bb aa fb b5 bb 31 49 d8 bb
       -0.0060110013 -0.0071024452 -0.0055536823 -0.006600522
000090 1a 33 ec bb 45 c3 03 bc dc 3c d6 bb b0 14 93 bb
       -0.00720824 -0.008042161 -0.0065380167 -0.00448855
0000a0 ff a5 9f bb c7 04 94 bb d3 6a e9 bb 29 18 cd bb
       -0.004872083 -0.004517171 -0.00712333 -0.0062589836
0000b0 6f 19 db bb 5f 23 d9 bb 62 b2 dd bb 6d 95 9d bb
       -0.0066863815 -0.006626531 -0.0067656497 -0.0048090727
0000c0 70 89 d4 bb 14 f3 ae bb fe 9d d0 bb 0a e4 cf bb
       -0.0064861104 -0.0053390358 -0.0063664904 -0.006344323
0000d0 ad ca 84 bb 51 e6 c5 bb 5a 24 d7 bb 6e 1a b7 bb
       -0.004052481 -0.0060394187 -0.0065656127 -0.0055878675
0000e0 21 a7 b5 bb 94 97 c5 bb 52 45 d6 bb 50 31 b7 bb
       -0.005543605 -0.0060300324 -0.0065390253 -0.0055905953
0000f0 e6 dc c3 bb d9 8f e1 bb 04 2c db bb 77 47 f2 bb
       -0.005977261 -0.006883603 -0.0066885967 -0.007393773
000100 82 4a ac bb b4 33 fe bb 6f af ce bb 31 8f bc bb
       -0.0052579055 -0.0077576283 -0.0063075344 -0.0057543744
000110 e0 57 d4 bb 2d 41 e6 bb 68 d5 e3 bb f0 a8 e5 bb
       -0.006480202 -0.0070268125 -0.0069529302 -0.0070086643
000120 94 f3 bc bb 29 c2 8b bb 87 fb bd bb 45 a3 d0 bb
       -0.0057663415 -0.004265089 -0.0057978067 -0.0063671195
000130 40 cf 9c bb bc 9f a5 bb 99 0c fb bb dd 11 b8 bb
       -0.0047854483 -0.005054442 -0.007661414 -0.005617364
000140 52 52 84 bb 89 35 94 bb bb 1a bb bb 65 50 fe bb
       -0.0040381337 -0.0045229835 -0.0057099736 -0.0077610486
000150 1d 69 b9 bb f5 57 03 bc 69 f9 8f bb 57 b2 8e bb
       -0.0056582824 -0.008016576 -0.0043937457 -0.004354756
000160 62 d7 ec bb aa b5 c0 bb 2a 65 a5 bb ca c9 0b bc
       -0.007227824 -0.005881031 -0.00504746 -0.008531997
000170 3d 0f 9f bb 22 05 c5 bb 75 94 a2 bb 12 ba b6 bb
       -0.0048541115 -0.006012575 -0.004961545 -0.0055763805
000180 35 0a 97 bb 0d 9e 85 bb 32 d2 94 bb 93 58 8a bb
       -0.004609371 -0.004077679 -0.004541659 -0.0042219847
000190 ed 31 a6 bb a7 3b 7b bb 2f b7 84 bb 41 97 ed bb
       -0.0050718696 -0.0038335116 -0.0040501575 -0.007250697
0001a0 7e f1 b5 bb 0e 02 b9 bb 2c be c0 bb 42 6a ca bb
       -0.0055524698 -0.005645997 -0.0058820453 -0.0061772177
0001b0 7e 22 b9 bb 7d 28 95 bb 02 7b a2 bb 09 80 ae bb
       -0.0056498637 -0.0045519457 -0.0049585113 -0.0053253216
0001c0 4f 44 8a bb f0 38 a6 bb 4b fa cd bb 03 97 82 bb
       -0.004219569 -0.0050727054 -0.0062859408 -0.003985287
0001d0 01 9c 80 bb 28 03 ca bb 72 43 bc bb 08 46 b3 bb
       -0.003924847 -0.006164927 -0.005745345 -0.005470995
0001e0 ad a0 ac bb 7f ad b7 bb 0a 90 b1 bb a7 6b 9f bb
       -0.0052681775 -0.005605399 -0.005418782 -0.004865128
0001f0 5e 38 d2 bb e7 5a b8 bb e3 c4 b7 bb e5 31 d1 bb
       -0.006415411 -0.005626071 -0.0056081875 -0.0063841217
000200 6c a0 b8 bb 53 ab 87 bb bd e9 b8 bb 55 81 d9 bb
       -0.005634358 -0.0041402965 -0.005643098 -0.006637732
000210 5d 69 ac bb 83 20 a5 bb 51 fb b2 bb 17 33 d7 bb
       -0.0052615837 -0.005039276 -0.005462088 -0.0065673697
000220 28 d7 a2 bb 9a 88 de bb aa 69 bd bb 69 f2 97 bb
       -0.0049694963 -0.0067911865 -0.0057804184 -0.004637052
000230 4f f1 fb bb 7e f1 9e bb cb ea eb bb 41 58 b2 bb
       -0.0076886783 -0.0048505655 -0.0071996204 -0.0054426496
000240 05 c2 8c bb f5 b2 ab bb ab ba 67 bb 74 27 cf bb
       -0.00429559 -0.005239839 -0.0035359066 -0.006321842
000250 7c 96 bd bb 75 f4 ba bb 52 e6 b0 bb e6 b1 ac bb
       -0.0057857614 -0.005705411 -0.00539855 -0.0052702306
000260 df 90 a1 bb 98 ee 9f bb e4 cc c5 bb c5 cd cd bb
       -0.0049306 -0.0048807375 -0.0060363878 -0.006280633
000270 0f d2 df bb 83 fa be bb 69 80 bf bb b0 7d af bb
       -0.006830461 -0.005828203 -0.005844165 -0.0053555593
000280 42 64 c0 bb 0a ec dc bb 68 4b b7 bb a8 1e d9 bb
       -0.0058713267 -0.0067420052 -0.005593706 -0.006625969
000290 77 7f a3 bb 04 1f cb bb 39 2d c2 bb 9e 8a 43 bb
       -0.00498956 -0.0061987657 -0.005925801 -0.002983726
0002a0 4b 7c a6 bb a1 3d 7f bb 24 d7 c0 bb 03 23 c9 bb
       -0.005080735 -0.0038946646 -0.0058850218 -0.006138207
0002b0 51 99 c5 bb d7 dd fb bb 65 f1 86 bb e5 1f 8d bb
       -0.0060302396 -0.0076863575 -0.004118132 -0.0043067806
0002c0 b7 65 ba bb f7 72 b1 bb 6a 12 a0 bb ae 30 a4 bb
       -0.005688395 -0.005415316 -0.0048850076 -0.005010686
0002d0 c9 aa 63 bb 8b 6f 72 ba 43 8e 6b bb 7e a8 98 ba
       -0.0034739247 -0.00092481886 -0.003594295 -0.0011646894
0002e0 af fe 98 ba 5b 15 55 bb 4e fe de ba a9 b1 89 bb
       -0.0011672581 -0.003251395 -0.0017013045 -0.004202087
0002f0 50 36 8d ba f1 1f cc bb 32 9e f5 bb ff d2 b5 bb
       -0.0010773633 -0.0062293936 -0.007495665 -0.0055488343
000300 b5 c3 9a bb f2 e1 a5 bb b4 2d bf bb 96 0e da bb
       -0.004723037 -0.005062335 -0.0058343057 -0.006654571
000310 cc e6 7e bb 84 58 01 bc 85 a6 b1 bb e4 f6 e8 bb
       -0.003889489 -0.007894639 -0.005421462 -0.00710951
000320 05 81 b3 bb 94 97 af bb 62 6b 8f bb dd b7 ce bb
       -0.005478027 -0.0053586457 -0.0043768147 -0.0063085393
000330 9c 3f b4 bb f2 4b ef bb 6e 13 f1 bb 2a 37 ef bb
       -0.005500747 -0.0073027546 -0.0073570525 -0.0073002772
000340 ad c0 8e bb 3e ea db bb 79 71 95 bb 14 e6 d1 bb
       -0.004356465 -0.0067112735 -0.004560646 -0.0064056013
000350 f0 b8 c8 bb 00 80 99 bb 7c 43 ad bb 88 65 be bb
       -0.006125562 -0.0046844482 -0.005287586 -0.0058104433
000360 d2 46 cd bb fc d8 bb bb b5 8d f1 bb 6b 27 b1 bb
       -0.006264546 -0.0057326537 -0.007371629 -0.0054063103
000370 06 fb c9 bb 5a e1 e0 bb 8f e3 cd bb 25 62 c0 bb
       -0.0061639575 -0.0068628015 -0.0062832306 -0.0058710747
000380 33 c8 cc bb e5 60 b2 bb e5 6a 9a bb ae 74 04 bc
       -0.0062494515 -0.0054436796 -0.00471245 -0.008084459
000390 94 b8 b8 bb da 34 02 bc 95 e3 c8 bb 18 31 d8 bb
       -0.005637238 -0.007947171 -0.0061306455 -0.0065976493
0003a0 0e 14 07 bc 6a c4 b2 bb a5 89 de bb f2 fe 02 bc
       -0.0082445275 -0.0054555433 -0.006791311 -0.007995354
0003b0 b3 af 06 bc 33 41 e2 bb 4d 35 d0 bb 12 5b d2 bb
       -0.008220601 -0.006904745 -0.00635401 -0.006419548
0003c0 e9 ad 03 bc 8c 9f e3 bb 22 d3 03 bc 70 36 df bb
       -0.008037069 -0.0069465097 -0.008045943 -0.0068119094
0003d0 6d 48 e3 bb c3 60 bc bb 82 04 d1 bb 3c bd bb bb
       -0.006936124 -0.0057488396 -0.006378711 -0.0057293456
0003e0 2d 30 ff bb 02 d6 e6 bb 52 35 e3 bb 9d 75 97 bb
       -0.0077877254 -0.0070445547 -0.0069338465 -0.004622175
0003f0 e3 a9 2b bb 7a 8e 52 3a d0 63 e5 b9 04 4d 2f bb
       -0.002619379 0.0008032095 -0.0004375265 -0.0026748786

convup3.weight f4 [1, 16, 3, 3]
000000 46 5d 44 3e 1d d5 97 be 54 c4 27 3f 13 b5 2d 3d
       0.19176206 -0.2965478 0.6553395 0.042409014
000010 dd 36 8b 3d 97 f6 6c 3f 2f 84 09 3f 57 94 e2 3e
       0.06797574 0.92563766 0.5371732 0.442538
000020 c3 41 cc be 98 9d 05 bd 1b 67 54 be 4a 07 94 bd
       -0.39893922 -0.032620996 -0.20742457 -0.07227953
000030 40 64 d8 be af e0 53 3e 07 4d 53 be 8c 5f 31 be
       -0.42263985 0.20691179 -0.20634852 -0.17321604
000040 e3 89 17 3b 7c 84 a6 bd 4a 4b 8a 3e c9 36 33 bf
       0.0023122958 -0.08130738 0.27010566 -0.7000547
000050 8f ee a6 be 99 9e 87 3d 68 24 98 3d 16 06 16 bd
       -0.3260388 0.06622047 0.07428819 -0.036626898
000060 25 6a 0b 3f 87 b8 32 3e e9 02 84 bc 34 61 26 bf
       0.5445884 0.17453204 -0.016114669 -0.6499207
000070 eb 1e 8c 3f fd 02 54 be fd 28 ab bd d3 c9 60 3d
       1.0946935 -0.20704265 -0.08357427 0.054879975
000080 cd fc eb be 3d cf 43 3e 20 bd 0a be e5 3a 16 bc
       -0.4609131 0.19122024 -0.13548708 -0.009169315
000090 94 fd 38 3f 79 70 c0 be 41 c1 58 3f 9a 01 1f 3e
       0.7226193 -0.3758581 0.8466988 0.15527955
0000a0 fe d8 81 3e f5 f9 33 be ca 58 ad be b0 63 3d 3f
       0.25360864 -0.1757582 -0.33856803 0.73980236
0000b0 c3 49 4a bf ad 12 2b be a5 4f 01 bf 23 e3 d6 3e
       -0.790188 -0.16706343 -0.5051215 0.41970167
0000c0 ce 87 70 3e da 44 e3 3e 3f 27 c8 3d 6d bd 71 bf
       0.23489305 0.44388467 0.097731106 -0.94429666
0000d0 4b eb 66 3e 84 a7 1d 3f 0f 1e b5 3e 0e d4 73 be
       0.22550695 0.61583734 0.35374495 -0.23811361
0000e0 16 1d 1d bd bd e2 e3 3e 43 62 56 bd 85 5e 76 3e
       -0.038357817 0.44508925 -0.052339803 0.24059494
0000f0 bd 63 94 be 30 6c 21 3d 5b 3c 8f 3e 87 a1 fc bd
       -0.28982344 0.039409816 0.27975735 -0.123354964
000100 95 32 36 be 8e bc 16 bf a2 56 fa be 87 39 2f 3f
       -0.17792733 -0.5888146 -0.4889422 0.68447155
000110 80 ca 09 bf e5 17 0d 3f 46 81 b6 38 a1 fe a0 3e
       -0.53824615 0.55114585 8.702515e-05 0.31444266
000120 63 44 6a ba 7f 5f b7 be 78 cd 97 bd 41 db b2 3d
       -0.0008936582 -0.35815045 -0.07412237 0.087332256
000130 3e 1b 82 bf dd 2c dc be ef 52 3a 3a be 5f cd 3e
       -1.0164564 -0.43002978 0.0007107695 0.40112108
000140 76 3b 2d 3f 73 0a a3 3e 61 30 f6 3d 58 48 03 be
       0.67668855 0.3184391 0.12020946 -0.12820566
000150 18 f8 ad 3e 7b 82 30 3e ff 68 ca 3d 34 e1 2c 3e
       0.33978343 0.17237274 0.09883308 0.16882783
000160 92 71 9f bd 6c 47 9e be 5e 50 bb be c9 2e 0f bf
       -0.07785334 -0.30913866 -0.36584753 -0.55930763
000170 f9 53 82 3e a4 69 f9 3d 9c f7 45 3d 9a 72 b4 3e
       0.2545469 0.121783525 0.04833184 0.35243684
000180 86 9a d3 3d 78 0f 8b be 2a 35 6f be 3f 59 db 3e
       0.103322074 -0.2716024 -0.23360124 0.42841527
000190 4c fb da be ca 3d 1e be 0f e4 c1 be c6 c2 3a bf
       -0.4276985 -0.15453258 -0.37869307 -0.7295345
0001a0 26 10 22 bf 82 b2 ba 3e 27 9a 04 3f 29 57 2a bf
       -0.6330589 0.36464316 0.5179772 -0.66539246
0001b0 97 b9 d8 3e af 2e f7 bd bc 9e c9 3e ee 83 75 bf
       0.42329094 -0.12069451 0.39378917 -0.95904434
0001c0 36 be 5e bf 15 4f d7 3d c5 cb 1d be 73 6f eb be
       -0.8700899 0.105131306 -0.15409763 -0.45983467
0001d0 75 dd 37 3f 06 74 2d 3e de 8f 0f 3f 8a 6f 1b bf
       0.7182229 0.1693879 0.560789 -0.6071707
0001e0 59 ab 3e 3f 3d 4d 4e be 59 07 75 3f e2 2a 1a 3e
       0.74480206 -0.20146652 0.95714337 0.15055421
0001f0 81 73 e5 be 87 b1 0a 3f 95 c3 ae bd 82 ca fa be
       -0.44814685 0.54177135 -0.08533398 -0.48982626
000200 9d 70 13 3f 16 f4 99 3f e9 71 11 3f c8 39 d6 bd
       0.5759371 1.2027614 0.5681444 -0.1046024
000210 e7 c7 00 3f e0 ca b5 be ab 18 55 bd a5 78 0d be
       0.50305027 -0.35506344 -0.05202548 -0.13815553
000220 77 5e c9 3e 3d c4 a5 3e 7b d4 ef 3e 0b 8d 4f 3e
       0.39329883 0.3237628 0.46841797 0.20268647
000230 bc 82 81 bf 0e 96 68 be e5 45 cd bd d9 e2 cf be
       -1.0118022 -0.22713491 -0.10023097 -0.4060276

onnx::Conv_85 f4 [64, 64, 3, 3]
000000 e6 cd 49 40 08 b3 6e 40 e2 36 b9 c0 b9 0a d5 3f
       3.153192 3.7296772 -5.7879496 1.6643897
000010 3c eb 6f 40 77 86 39 c0 38 7d e7 c0 d3 77 8c c0
       3.7487326 -2.898832 -7.2340355 -4.389627
000020 c8 93 e4 c0 07 a0 62 41 20 32 ad bf fa bf 01 41
       -7.1430397 14.164069 -1.3530922 8.109369
000030 dd 3a cd 40 31 63 93 c0 b1 11 23 40 43 1e 99 40
       6.4134355 -4.6058583 2.5479548 4.784944
000040 d0 9c 09 c0 22 85 0e c1 11 44 17 41 1b 92 9b 40
       -2.150196 -8.907503 9.454118 4.861585
000050 4e 73 81 c0 e7 d7 83 3f df e5 6a 3f 9d 81 f3 c0
       -4.0453253 1.0300263 0.91757005 -7.609572
000060 ca b9 fc 3e 9a 85 5b c0 5e 6d 53 c0 6a dc da bf
       0.49360496 -3.4300294 -3.3035502 -1.7098515
000070 42 f1 46 c0 fd 68 b9 bd ff c2 c0 c0 8a 57 f2 c0
       -3.1084752 -0.09053228 -6.023803 -7.573186
000080 24 81 c2 c0 d4 ae 96 bf fb d3 06 bf d0 56 a6 40
       -6.078264 -1.1772103 -0.52667207 5.198097
000090 97 fe b9 40 77 78 03 c1 4e 2a 39 c0 b7 42 2e 3e
       5.812328 -8.21691 -2.893207 0.17017637
0000a0 20 2e 1b 3f 72 8b 20 40 6b c4 55 40 e1 f1 2c bf
       0.60617256 2.508511 3.3401134 -0.6755658
0000b0 24 69 e2 40 bb 44 e9 3f 4b 5d 98 c1 9e c4 ed bf
       7.0753345 1.82241 -19.045553 -1.8575628
0000c0 c4 f9 8f 3f 9c 13 24 40 68 0e 5c c0 2e d9 86 c0
       1.1248097 2.5636969 -3.4383793 -4.214011
0000d0 9e 7d eb bf 7c f3 9d c0 4e 3b 0a bf 80 f0 eb c0
       -1.839771 -4.935972 -0.5399674 -7.373108
0000e0 6b 15 07 c1 7d c7 e0 bf f3 46 bf bf 41 39 2d c0
       -8.442729 -1.7560879 -1.4943527 -2.7066195
0000f0 60 b2 d0 c0 ce 81 d8 c0 4f 63 34 3f d4 dc 8a 3f
       -6.5217743 -6.7658453 0.7046403 1.0848641
000100 09 bc 3d 40 d2 7b 8b bf 05 02 ff c0 18 0e 99 c0
       2.9646018 -1.0897162 -7.9689965 -4.7829704
000110 97 6f 19 c0 13 f1 6e c0 8d e9 d0 c0 df 5a 6b c0
       -2.397436 -3.733464 -6.5285096 -3.6774213
000120 49 b6 9e c0 1f 4b 9f c0 bd aa c6 3f 62 40 c4 c0
       -4.9597516 -4.97792 1.5520855 -6.132859
000130 23 d1 a5 c0 c7 e0 f0 40 79 aa 12 40 ec c8 83 3f
       -5.1817794 7.5274386 2.2916548 1.0295691
000140 aa d5 fb bd 49 ed 16 3e af 2b b5 c0 0f eb 3a c0
       -0.122966126 0.14738955 -5.6615825 -2.9205968
000150 94 5c 8d c0 43 ad f1 c0 e5 77 eb bf 7f e2 74 c0
       -4.417551 -7.5524 -1.8395964 -3.8263242
000160 03 c3 b5 c0 41 ee 8c c0 3a 7f 87 40 d5 cc 8b 3e
       -5.680055 -4.4040837 4.2342806 0.27304712
000170 3f 78 18 41 82 76 f3 c0 c1 45 dc bf 45 a6 8b 40
       9.529357 -7.6082163 -1.7208787 4.3640466
000180 62 d8 f6 c0 9b f5 f3 40 d4 fe d6 40 90 b5 de c0
       -7.713914 7.623731 6.718607 -6.9596634
000190 33 54 1b c1 b5 f1 69 40 ca f4 f3 3f 0e d1 70 40
       -9.708056 3.6553776 1.9059079 3.7627597
0001a0 4b 88 8e 3f 40 10 f6 c0 0f 04 ea be 0a cc 60 3e
       1.1135343 -7.6894836 -0.4570622 0.21952835
0001b0 89 83 be 40 f2 13 99 c0 1f 70 2c bf 43 fc f9 be
       5.9535565 -4.7836847 -0.67358583 -0.48825273
0001c0 da 04 92 40 51 8f 8c c0 3f b7 94 c0 60 90 25 40
       4.563092 -4.3924947 -4.647369 2.586937
0001d0 72 b4 43 c0 8a c7 9f bf 71 94 d5 c0 a1 bd 6a c0
       -3.0578885 -1.248277 -6.6743703 -3.667824
0001e0 38 7c 12 3e f9 c6 14 40 54 46 88 40 e2 b0 71 3f
       0.14305198 2.3246443 4.258585 0.94410527
0001f0 fb 6f ee bf cd 19 70 bf f2 65 84 bf c9 8e a6 40
       -1.8627924 -0.9378937 -1.0343611 5.20493
000200 1c b7 05 41 56 df 50 c0 91 13 85 c0 de a6 c6 3f
       8.357204 -3.2636313 -4.1586385 1.5519674
000210 4e 7a 6d c0 1e 10 3c bf 12 c3 87 bd 3e 40 8d 40
       -3.71059 -0.7346209 -0.066290036 4.414092
000220 8f e4 34 3f 9e db 9a bd f6 68 66 c0 d0 7c aa c0
       0.7066125 -0.0756142 -3.6001563 -5.327736
000230 f0 da 13 c0 c5 2a 81 3f b9 91 a2 bf e1 52 92 be
       -2.310238 1.0091177 -1.2700721 -0.28578857
000240 0c 19 b4 3f 9b 1e e8 c0 8f 21 42 40 b7 c1 37 40
       1.4070144 -7.253736 3.0332983 2.8711984
000250 f9 d4 1a 3e 83 33 2a 40 5e 26 88 c0 a5 da 19 bf
       0.15120305 2.659394 -4.2546835 -0.6009925
000260 1d 2c c3 3f 85 52 a6 c0 87 f6 7f bf 8e 15 83 40
       1.5247837 -5.197573 -0.99985546 4.096381
000270 fc 92 8f c0 15 c4 f7 c0 53 66 cc bf 2a f1 52 c0
       -4.4866924 -7.742686 -1.5968727 -3.2959695
000280 24 f0 61 bf cd b7 fa bf 72 95 9e 3f 77 28 0e c0
       -0.8825705 -1.9587342 1.2389357 -2.2212198
000290 86 9e bc c0 8a dd a0 3f 26 95 14 3f 2a dc cf 40
       -5.894351 1.2567608 0.5804008 6.4956255
0002a0 eb 63 79 bf 86 e5 d8 bf d8 3a a8 40 ae 89 e7 bf
       -0.9741809 -1.6945045 5.257183 -1.8088892
0002b0 77 a7 b6 be db fb 06 c0 6f fe 02 c1 e8 dd ad bf
       -0.3567464 -2.109122 -8.187118 -1.3583345
0002c0 5b 07 00 c0 39 aa 6b c0 8d 22 36 40 28 d1 08 41
       -2.000449 -3.6822646 2.8458588 8.551064
0002d0 f6 0b 10 40 84 60 1f 3e 02 96 49 3f 00 cb e4 c0
       2.25073 0.15564162 0.7874452 -7.1497803
0002e0 3c 74 c1 c0 15 69 4a bf 52 d6 17 c0 e0 63 19 41
       -6.045439 -0.7906659 -2.372456 9.586884
0002f0 7d 19 28 40 63 75 30 40 e2 8e f1 3f 59 92 80 c0
       2.6265557 2.7571647 1.8871729 -4.0178647
000300 d8 fb 07 41 63 42 80 bf d5 21 db be 57 04 de 3f
       8.498985 -1.002026 -0.4279925 1.7345074
000310 f9 56 75 be bc 9b 3f 40 80 68 f5 3f e2 09 a8 40
       -0.23958959 2.9938803 1.9172516 5.2512064
000320 e6 b4 d9 40 f5 8f dc c0 1d 3d 5e bf d1 b9 8d 40
       6.8033323 -6.892573 -0.86812 4.4289327
000330 78 da f3 3f aa 7c 9b bf 2d d8 14 40 a2 dc 1f 41
       1.9051046 -1.214742 2.3256943 9.991365
000340 da f0 84 40 dd 96 4e bf 35 2a d4 c0 c3 c3 a4 40
       4.154401 -0.8069895 -6.630152 5.1488967
000350 68 7d 2d c0 7d e3 bc 3f 62 6d b6 bf cb 72 01 c1
       -2.7107792 1.4756924 -1.4252131 -8.090526
000360 59 31 69 bf a9 a5 79 c0 53 c5 b0 3f 4b 5c bf c0
       -0.91090924 -3.900736 1.3810219 -5.980016
000370 0a 68 1d 40 dd a2 b0 40 20 12 7f 40 8e 68 91 c0
       2.459475 5.519881 3.9854813 -4.544013
000380 af d2 ad 3f 4e b9 13 40 57 9b ab 40 54 da 18 41
       1.357992 2.308185 5.3627124 9.553303
000390 c4 3c 3d 40 13 02 04 41 54 8e be bf 13 44 42 40
       2.9568338 8.250506 -1.4887185 3.035405
0003a0 10 92 80 40 a3 c1 d8 bc 3f 6a 06 bc 1a 91 69 3f
       4.01783 -0.02645952 -0.008204042 0.9123703
0003b0 e1 88 93 c0 c5 4e 7e c0 5e 18 d2 40 a0 9d 5a bf
       -4.610459 -3.9735577 6.5654745 -0.85396767
0003c0 40 a4 3b 40 27 6c ee c0 2f 12 5a c1 c8 6e f1 c0
       2.9319 -7.450702 -13.629439 -7.544773
0003d0 11 8d 96 40 2c 4b 0b c0 3b 7c 5c 40 ef a4 8b 40
       4.70472 -2.1764631 3.4450824 4.3638835
0003e0 7d 97 50 40 32 93 5b 40 ad a7 30 c1 83 46 90 40
       3.259246 3.430859 -11.040936 4.5086074
0003f0 75 87 10 c0 ae 59 fa 3f 1f 39 b5 be b6 3a d4 c0
       -2.2582676 1.9558618 -0.35395142 -6.632167

onnx::Conv_86 f4 [64]
000000 61 01 9d 3f bc c9 98 3f 6a 9d c0 be ce 97 61 3f
       1.2266046 1.1936564 -0.37620097 0.8812226
000010 c5 12 16 bf bd 9b 9c 3f ec ec a9 3f b9 72 e1 3e
       -0.5862239 1.2235028 1.3275428 0.4403284
000020 6b d9 47 3f d1 75 b4 bf a0 21 fa bb fd 10 a0 3f
       0.7806613 -1.4098455 -0.007633403 1.2505184
000030 90 2b 11 3c 3b d5 c1 bf bb d4 2e bf b6 cc 23 bf
       0.008860484 -1.5143198 -0.6829335 -0.6398424
000040 ef 3b f5 3e b6 9a b5 3f 13 c1 8a 3f ba ca 98 3e
       0.47897288 1.4187839 1.0840172 0.29842168
000050 7f 38 c6 3f 9b 72 a1 3f ea 3e c2 be 2b d1 bc bf
       1.5485991 1.26131 -0.37938625 -1.4751333
000060 10 d9 06 3e 2e 17 11 be e3 79 16 3e 32 71 b2 3f
       0.1316874 -0.14168999 0.14694934 1.3940794
000070 a4 e2 c1 3f d5 9d ba 3f 69 d5 98 bf 1d 64 bf 3f
       1.514729 1.4579417 -1.1940128 1.4952427
000080 73 f1 aa bf af 51 b2 bf d2 1b 02 bf c0 c0 9f bf
       -1.3354934 -1.3931178 -0.508237 -1.2480698
000090 05 b6 31 3f d1 43 87 3f 01 80 06 bf c0 2e a8 b9
       0.69418365 1.0567571 -0.5253907 -0.00032078288
0000a0 42 4b 7b bf 66 72 7a 3f 1a cf 79 3f 1b b9 bb bf
       -0.9816171 0.9783081 0.97581637 -1.4665865
0000b0 23 78 9e 3f 3e f2 66 3f b5 11 50 3f 84 08 85 bf
       1.2380413 0.9021338 0.8127702 -1.0393224
0000c0 56 d2 a3 bf 45 4b c5 bf 9d af 50 3f 00 5f 24 3f
       -1.2798564 -1.5413595 0.81517965 0.6420746
0000d0 e1 1d 79 bf 23 5b a5 3f 6a 3a 86 3f 11 23 fd 3e
       -0.97311217 1.2918438 1.0486577 0.49440816
0000e0 bd 6f bd bf 7d 75 b9 3f 28 88 28 bf 12 1b 4e bf
       -1.4799725 1.448898 -0.6583276 -0.80510056
0000f0 35 ff 0d 3f 6a 9b cb bf 44 77 94 bf d4 85 b4 3f
       0.5546754 -1.5906804 -1.1598897 1.4103341

onnx::Conv_88 f4 [64, 64, 3, 3]
000000 ce 33 10 bc 87 34 7a 3d cb 29 21 3c fc 06 df bd
       -0.008801414 0.06108525 0.009836624 -0.10890004
000010 d9 c0 76 bd 5f e8 89 3d ee dc 24 bc ab a7 a1 3c
       -0.060242508 0.067337744 -0.010062439 0.01973327
000020 af 0d 5f 3c 8c f7 51 3c d5 e7 0a 3d 15 b5 94 bc
       0.013614102 0.012815367 0.0339125 -0.018152753
000030 82 42 cd bb 23 c0 2a bc 2a cc e8 3b c7 2b 6b 3d
       -0.006264032 -0.0104217855 0.0071044164 0.057414796
000040 74 27 53 bd 00 62 1a 3d f8 c3 b0 bb c7 fa 91 3d
       -0.051551297 0.037691116 -0.005394455 0.0712791
000050 55 b3 a5 3d e2 65 32 bd a4 96 36 3c da 0b 79 b7
       0.080908455 -0.043554194 0.011144314 -1.4844316e-05
000060 51 48 b2 bd a9 fb 0a bc 3f 19 7d bc 7b d5 83 3d
       -0.087051995 -0.008482852 -0.015447914 0.064372025
000070 9d 18 41 3b b6 52 ae 3d e1 3e bd bc eb 94 f6 bc
       0.0029464134 0.085118696 -0.023101272 -0.030100306
000080 04 b0 00 3d c0 2e 89 3d 13 9b bd 3c 86 cb 11 3d
       0.03141786 0.0669837 0.023145234 0.035594486
000090 d8 9f f2 3a 3f 00 56 bc 6b c7 95 3c 68 92 24 bc
       0.0018510772 -0.013061582 0.018283566 -0.010044672
0000a0 fa 44 d7 bc f2 b2 ab 3c 74 cc 89 bc 50 53 38 3c
       -0.026278008 0.020959351 -0.016821124 0.011250332
0000b0 56 02 fa 3c 48 ad 1d bc d7 62 04 3d bc 5a 81 bc
       0.030518692 -0.009623833 0.032320824 -0.015790336
0000c0 90 7e 30 3d 38 51 c1 bc 6f 8b 1f 3d f8 e9 f4 bb
       0.04308945 -0.023598298 0.038951334 -0.0074741803
0000d0 44 d5 12 bd 0d f4 d6 bc 0d 64 23 3d c7 bd a5 bd
       -0.035847917 -0.02623942 0.039890338 -0.08092838
0000e0 db 8f 87 3d 31 c4 a9 bc 61 9d 0c 3d d1 71 3c bc
       0.06619235 -0.020723434 0.034329776 -0.011501745
0000f0 ff 98 f7 3c 67 12 13 3c 27 a7 08 bc fb c8 7d 3d
       0.030224321 0.008976555 -0.0083406335 0.061959248
000100 7b 4c e7 bc 2d f1 16 bd d3 6e fe bc d6 a3 56 bc
       -0.02823471 -0.036851097 -0.031058704 -0.013100585
000110 5a d2 2f bd 13 97 07 3d 47 41 ee 3c 01 25 b2 bc
       -0.042925216 0.03310306 0.029083861 -0.02174616
000120 37 b6 92 bd 0d 1d 5c 36 69 25 6a 3d 13 83 9b bd
       -0.07163661 3.2799464e-06 0.057164583 -0.0759336
000130 47 5a 93 3c bc e2 39 bd 16 5b 96 3c 03 7a 23 3d
       0.017987384 -0.045382246 0.01835398 0.03991128
000140 c1 29 a6 bc 2c 88 57 b9 6a f3 92 bd 57 31 9a bd
       -0.020283582 -0.00020554726 -0.07175334 -0.07528942
000150 6b 44 77 3d 32 00 f6 3c fc 4f 51 ba 59 77 0c 3d
       0.060367983 0.03002939 -0.0007984636 0.034293506
000160 fc 92 a3 bc 00 31 c3 bc be 10 d7 bc 0d 5b a4 3c
       -0.019967549 -0.023827076 -0.0262531 0.020062948
000170 22 69 25 bd cc 4d 9d 3c 5f 3f 4f 3c 5c ca 2b bd
       -0.040383466 0.019202136 0.012649386 -0.04194103
000180 f3 30 80 3a d3 fe 9b 3c a6 a1 8c 3c 41 d7 39 bb
       0.0009780213 0.019042408 0.017166924 -0.002835706
000190 74 89 e2 bc fc 39 f4 bc 16 4f 6f bc a6 17 02 b8
       -0.027653433 -0.029812805 -0.014606258 -3.101644e-05
0001a0 05 ed 02 3d 33 bb 2b bd 49 4c c7 bc fb 4b 11 3d
       0.03196432 -0.041926574 -0.024328368 0.03547285
0001b0 b6 8a ad 3b 78 64 be bc d6 25 95 bc 91 81 d0 3b
       0.0052960766 -0.023241267 -0.018206518 0.006363102
0001c0 af 25 ae 3c 23 63 bf 3c 73 18 2c 3c 8d ca 16 bc
       0.021258203 0.023362702 0.010503876 -0.009203565
0001d0 48 22 b7 bc 2d cd 0a 3c af d3 d9 bc c7 89 73 3c
       -0.022355214 0.008471769 -0.026590196 0.014864392
0001e0 cf 7a 56 bc cf 6a f9 bc 78 5e ad bc ad ee a2 bc
       -0.013090803 -0.030446438 -0.02116321 -0.0198892
0001f0 ef cc b4 3c 9e 72 76 bd f1 d2 44 3c 91 0e a4 bc
       0.022070376 -0.0601679 0.012013183 -0.020026477
000200 11 16 6b bd 1a 25 80 bb d1 2e 8f bd ac f5 92 3d
       -0.05739409 -0.003910673 -0.069913514 0.071757644
000210 0d 3d 7a bc 8a 57 0a bd ed cc b7 bb 0d 51 e3 3c
       -0.015273345 -0.03377489 -0.005609146 0.027748609
000220 18 e3 ef 3c 74 a1 a8 bd 1d f3 1c 3d af 9e 32 bd
       0.029283091 -0.0823392 0.03831779 -0.043608364
000230 be 1e 73 bc dc 8e 85 39 c3 d8 d5 3c 08 fd ac bc
       -0.0148388725 0.00025474175 0.026104337 -0.021116748
000240 35 b0 7e bd b7 54 17 bc ef 8c 63 bd 2d 88 7c bd
       -0.062179763 -0.009236506 -0.055554327 -0.061653305
000250 52 b3 01 39 f5 16 11 bd d9 ec f4 3c 8f 6a 39 bc
       0.000123692 -0.035422284 0.029898094 -0.011316909
000260 c1 b5 8d ba fe a3 df bc 98 6a 7f 3d 6e 8d 76 3d
       -0.0010811613 -0.027299877 0.062357515 0.06019347
000270 97 2b dd 3d e5 5f 83 bb 43 1d bc ba 45 56 33 bb
       0.1079933 -0.0040092343 -0.0014351982 -0.0027364653
000280 1a 15 83 bc 9d 10 d8 3a 3c e6 ab bc e4 5a 7a bd
       -0.016001273 0.0016484443 -0.020983808 -0.061121836
000290 bf 4e 9c bb 76 78 92 3b 2b 49 0a 3c 0c 18 9e 3b
       -0.0047701295 0.0044699265 0.008440296 0.004824644
0002a0 64 8c e9 ba bb de 02 3c ea 73 d1 bd 6b 7d 06 3d
       -0.0017818329 0.007987673 -0.10227187 0.03283445
0002b0 0f c3 01 bd 69 3f e9 3c 31 3f 30 3d f5 bc 62 bd
       -0.031680163 0.02847262 0.043029014 -0.055355985
0002c0 b6 1f a3 bd dc 94 a8 3c 0a 24 12 3d 7c d2 75 3a
       -0.07965033 0.020578794 0.0356789 0.0009377373
0002d0 ad 5b d2 3c ef a0 aa bc 97 89 0c 3d 19 ea 4a 3c
       0.02567848 -0.020828692 0.034310903 0.012384915
0002e0 cc b3 d9 3c c1 3f 88 bc d9 8d 5b bd 62 57 12 bd
       0.026574992 -0.016631963 -0.053602073 -0.035727866
0002f0 ec e8 56 3c ae 8f 76 3c ad 8e 82 bc dd 79 dd bd
       0.013117056 0.015048904 -0.015937174 -0.10814259
000300 29 c2 33 3d 2b f3 1b 3c d3 c9 31 bd 11 f3 2d bd
       0.043886337 0.009518425 -0.043405365 -0.042468134
000310 4c 6e ab bc 4c 47 54 bd 18 41 19 3d ba e0 eb 3b
       -0.020926617 -0.051825806 0.037415594 0.0071984204
000320 a4 61 2a bb d4 04 7f bd 8e 88 02 3d 12 ca 69 bd
       -0.002599814 -0.062260464 0.03186851 -0.057077475
000330 2d 8d 21 bc d6 76 ae 3b f5 e5 86 3b 43 05 22 3d
       -0.009860319 0.005324225 0.0041167685 0.0395558
000340 7d 7b 97 bc 41 be 8b 3b a7 62 27 3d ce 36 10 3c
       -0.018491501 0.0042646234 0.040865567 0.008802129
000350 ec 8d 42 bd f6 15 74 3b 8a f0 97 bc 7c 09 8b bc
       -0.04749863 0.0037244535 -0.018547315 -0.016972296
000360 c6 99 a8 bc 0a 17 3c bb 8d f4 cc bc df a6 61 bd
       -0.020581137 -0.0028700256 -0.025018955 -0.05509078
000370 4f 98 98 bd 3a e8 91 bc 89 72 20 bc 80 6a 9f bd
       -0.074509256 -0.01781093 -0.009792932 -0.07783985
000380 0d f2 01 3c 4a 4e 16 bd 41 13 f3 bc e8 15 84 bc
       0.007931245 -0.036695756 -0.029672267 -0.016123727
000390 6e 09 0f 3d 02 8c c4 bc 8f bb ee bc 79 13 38 bd
       0.034921102 -0.023992542 -0.02914217 -0.044940446
0003a0 f4 8d 1d bb dd 6b a8 b8 b1 ad d5 39 c8 35 9b 3d
       -0.002404091 -8.030955e-05 0.00040755936 0.07578617
0003b0 67 f9 a3 3c 61 6e 1e 3c 77 7b 89 bb fd 1b 7b bb
       0.020016385 0.009669871 -0.0041956264 -0.0038316243
0003c0 de d1 81 bc 38 e8 72 3d 56 b3 01 3d 7f 5c 18 bd
       -0.015847143 0.059303492 0.03166517 -0.037197586
0003d0 6a 5f 45 bd fe 65 3b bd c4 02 1d 3c c3 1d 23 bd
       -0.048186697 -0.045751564 0.009583179 -0.039823305
0003e0 59 54 b8 3b df 25 7c 3a 65 b4 5f 3d dd 3b 19 bd
       0.0056252894 0.00096186803 0.054615397 -0.037410606
0003f0 20 76 a3 3d f5 6f 01 3d c4 e2 ab bd 43 b9 9f bc
       0.07981515 0.03160091 -0.083928615 -0.01949752

onnx::Conv_89 f4 [64]
000000 ac c2 ca 3e 87 2d 9a be 4a 3c ed be bd 58 b3 be
       0.39601648 -0.3011286 -0.4633506 -0.3502864
000010 7c 88 47 be 05 7f 9c be 84 e5 3a 3f 0d 8e 4d 3e
       -0.19485658 -0.30565658 0.73006463 0.2007372
000020 69 5f a8 bd 6a 87 5d bf 4d f3 f7 bc d7 5b 0c bd
       -0.08221323 -0.8653475 -0.030267382 -0.034267273
000030 1e f4 b4 3e 08 4d 2c be 91 71 74 3d b0 6a 12 3f
       0.35342497 -0.1682626 0.059678618 0.5719404
000040 9c 75 c5 be 6d fd 17 be 38 43 4a bd 87 07 08 be
       -0.3856629 -0.14842768 -0.04938051 -0.13284121
000050 a6 ee 0d 3e 7c de a8 3d 80 e7 a5 bb 6e 01 40 bf
       0.13860568 0.082455605 -0.0050629973 -0.7500218
000060 b4 98 b4 bd 46 51 00 3f 60 8a 11 3e 8e 11 8b 3f
       -0.08818188 0.50124013 0.14212942 1.0864732
000070 67 ab 9c 3e b2 b3 89 bd 76 d6 b5 3e 45 1d a1 be
       0.3059952 -0.06723727 0.35515183 -0.31467643
000080 8e 3b b2 3c 86 a5 dc 3e 7f 5a 96 3e 1e aa 26 3f
       0.021756914 0.43095034 0.29365918 0.6510333
000090 f0 e1 0e bf 04 17 d4 3d 58 ee d2 bd 59 f8 0b 3f
       -0.55813503 0.103559524 -0.10299367 0.54675823
0000a0 12 8e 9c 3c 4b 3b b1 be 3f d0 6d 3d 66 03 7f 3e
       0.019110713 -0.3461555 0.058059927 0.2490364
0000b0 6c c7 ee bd 6a 93 d4 3b 3e 2f de bd c1 b9 fa 3e
       -0.116591305 0.0064872997 -0.108488545 0.48969844
0000c0 b3 fb d2 be 9f 9d c1 be 80 18 90 3e 41 f9 0f 3f
       -0.41207656 -0.37815568 0.28143692 0.56239706
0000d0 80 ff 8d be 77 bd 9d be c0 be 09 3f e6 0b 33 3e
       -0.27733994 -0.30808613 0.53806686 0.17485008
0000e0 9f 95 15 3d 6c 1f 0b 3f ae 68 7c be c1 68 bd 3e
       0.036519643 0.5434482 -0.24649307 0.36993983
0000f0 77 b1 0c be 5f 5e 17 bf e0 68 21 3f 1e 6a 3d 3b
       -0.13739572 -0.59128374 0.6305065 0.0028902362

onnx::Conv_91 f4 [64, 64, 3, 3]
000000 7c 67 ce 3b 0d cc 69 3d 2e ca 10 3c 54 ec 93 bb
       0.0062989574 0.057079364 0.008837266 -0.0045142565
000010 ae 13 a6 3c 9a e4 95 3c 40 cb 47 bd 50 08 b5 bd
       0.020273056 0.018297482 -0.04877782 -0.08839476
000020 ab ee 88 bc cc ea 35 3d 7a d7 3d bd bb 5e 62 3c
       -0.016715368 0.044413373 -0.046348073 0.013816531
000030 ca 01 7d 3b 27 ff dc 3c 52 18 0f bb b7 52 81 3b
       0.0038605803 0.026977135 -0.0021834564 0.003946628
000040 52 00 bc bb 6f d2 13 bd df 61 03 bc a9 2f 7e bd
       -0.005737343 -0.036089357 -0.00801894 -0.06205717
000050 9c a4 ee bc a9 d9 1e 3d a6 64 b7 3a 17 ff 84 bc
       -0.029131226 0.038781796 0.0013991788 -0.016234918
000060 55 27 83 bc 45 d3 2b bc cb 03 88 bc ea 92 0e 3c
       -0.016009966 -0.010487382 -0.016603371 0.008702019
000070 ce aa a8 3d 23 4b b5 bb 09 88 03 3a 42 17 bf 3c
       0.082357034 -0.0055326386 0.0005017524 0.02332652
000080 37 0c 61 bb 89 78 bc 3c de e7 ce 3c 2e 19 d0 3c
       -0.0034339556 0.023006694 0.025257047 0.025402632
000090 6c 9f 88 3c 27 85 e3 3c b5 25 d7 3c 52 e8 c1 39
       0.01667758 0.027773453 0.026263097 0.0003698492
0000a0 99 e9 cd 3b 3b 95 d0 3b 66 b1 65 3c ae 00 36 3b
       0.0062839505 0.006365446 0.014019346 0.0027771401
0000b0 b2 05 1c 3d bb ac 5a bc dc af 0f bc 6b 74 b8 bb
       0.03809137 -0.013346846 -0.0087699555 -0.0056291125
0000c0 d8 df 92 bb 64 c5 b2 3c 3b fa ce ba fb 88 c5 bc
       -0.0044822507 0.021822639 -0.0015791127 -0.024113169
0000d0 60 ab 95 bb 18 5d 84 bc 4f 00 f3 3c d9 30 25 bd
       -0.0045675486 -0.016157672 0.029663233 -0.040329788
0000e0 4d b0 95 3c 91 69 3e bd 34 d3 11 3d ff d4 eb bc
       0.018272543 -0.046487395 0.03560181 -0.028788088
0000f0 4c ad 1e 3d 0b 2b c4 3c 90 49 16 3d 15 13 70 3d
       0.038739488 0.023946306 0.03669125 0.058611948
000100 6e 31 87 bc b0 a5 63 3b f6 58 e9 bc 30 01 0d 3d
       -0.016503062 0.0034736209 -0.028484803 0.03442496
000110 10 2a 8d bd b6 fb 08 bd 2a 4a b0 ba cf 7d 40 3d
       -0.068927884 -0.033443175 -0.0013449837 0.04699498
000120 a9 11 87 b9 c6 07 45 3c 3f 90 51 bc 96 0d 01 bd
       -0.00025762364 0.012025779 -0.012790739 -0.031507097
000130 68 50 44 bc d8 56 7d 3d 54 78 9a bd 46 be ab 3c
       -0.011982061 0.0618504 -0.07542482 0.020964753
000140 3a 67 a5 3c 02 90 43 bd 9a a0 f7 3d 7e fa e1 bc
       0.020190824 -0.04774476 0.12091179 -0.027585264
000150 a9 2b 79 3c 03 7b 27 3d b8 f3 56 3c 81 14 46 3c
       0.015208163 0.040888797 0.0131196305 0.012089849
000160 7b 1c 77 3d 58 fb ff 3a 28 56 29 3c 49 ed 3d 3c
       0.060329895 0.0019529862 0.010335483 0.011592218
000170 8c dc 7b 3d b5 fb 07 bd 0f 53 fb bc a8 a7 de 3c
       0.061489627 -0.03319903 -0.030679254 0.027179554
000180 fd 17 b9 3b 7c f1 99 bc 97 2b 7e 3c e3 0e 75 bd
       0.0056486116 -0.018791907 0.015513322 -0.05982865
000190 49 af 48 bd 3d 42 04 3d 19 2f 92 3c fa 4c 3f 3c
       -0.04899529 0.032289732 0.017844724 0.0116760675
0001a0 37 25 ef bb 85 d7 f7 3c 50 8f 6a bc aa f0 28 3b
       -0.0072981375 0.030254135 -0.014316395 0.0025778213
0001b0 a6 1a b6 3c 0e 9e 01 bd 10 b7 18 3d 4b ec 41 3d
       0.022229504 -0.031644873 0.037283957 0.047344487
0001c0 14 2b 56 3d 79 bc 7f 3d 0c f9 61 bc a6 9a ca bc
       0.052287176 0.0624356 -0.013792288 -0.024731945
0001d0 e1 39 f0 bb 95 bd f0 3c 31 a2 db bc 7f 12 1e 3d
       -0.0073311185 0.029387275 -0.026810737 0.038591858
0001e0 55 a0 35 ba 1c 8e d0 bb 7c a1 94 bc 65 e1 0b 3c
       -0.00069284934 -0.006364597 -0.018143408 0.008537625
0001f0 6a b2 a2 bc 8b bd 8f 3b 8c 9a 82 bc d5 19 02 bd
       -0.019860465 0.004386609 -0.015942834 -0.031762917
000200 30 16 d3 bc 0e 67 08 3d f4 a7 30 bc 99 cf cc bc
       -0.025767416 0.033301406 -0.010782231 -0.025001334
000210 b2 68 2b 3c ab be 9b 3c 73 49 7c 3c 90 ca 07 3c
       0.010461973 0.019011816 0.015398371 0.008288041
000220 1f 2f b3 bd 50 22 dc 3c d9 7f e4 3c f6 6f f5 bc
       -0.08749222 0.02687183 0.027892994 -0.029960614
000230 66 45 94 3c 4c d2 19 3d 55 f9 7a 3d 9a 15 55 bd
       0.018099498 0.03755407 0.061272938 -0.052022554
000240 ec f3 2d bc b4 98 27 bc 6b e8 77 bd de 88 40 3d
       -0.010617238 -0.010229278 -0.060524385 0.047005527
000250 b7 bf 2f bc 7a 2f 35 3c fa 96 86 bd 93 a5 da ba
       -0.010726861 0.011058683 -0.06571765 -0.0016681425
000260 3f 87 69 3d 97 9d 34 3d aa 81 1e bc 59 5a 41 bd
       0.057013746 0.044095602 -0.009674469 -0.047205303
000270 e7 07 79 3b ab 74 02 bd 36 29 6e bd c3 72 89 3d
       0.0037999095 -0.031849544 -0.05814477 0.06711342
000280 83 02 8c bc a6 8e 52 bc ba 61 53 bd 44 43 fa bb
       -0.017091041 -0.012851393 -0.05160687 -0.007637413
000290 c4 e4 df bb bf ef 77 bd 50 fe 10 3d 88 56 f7 bc
       -0.006832691 -0.060531374 0.03539878 -0.030192629
0002a0 a0 87 1c 3d c6 0f d3 3a ea 84 1f bd 0d 5c 43 3c
       0.03821528 0.0016102723 -0.038945116 0.011923802
0002b0 33 54 9c bd d4 a0 96 ba 97 dd d8 bd dc 4b 5c bd
       -0.07633247 -0.0011492022 -0.1058914 -0.053783283
0002c0 4b d7 f3 bb 5d 32 42 bd fa b5 87 3d 9e f4 18 bd
       -0.0074414364 -0.04741131 0.06626506 -0.03734266
0002d0 bd 46 dd bc ce c6 2f 3d 3c 97 38 3d be 47 8f 3c
       -0.02701127 0.042914204 0.045066103 0.017490264
0002e0 79 7b 27 bd 66 b6 42 bc fd f3 0e 3d ec ad 9a 3a
       -0.040889237 -0.0118843075 0.034900654 0.00118011
0002f0 11 7a d3 bc 82 bd be bc e5 ef 1c bd 43 be 1e 3c
       -0.025815042 -0.023283724 -0.03831472 0.009688917
000300 12 d4 cc 3b 5c 25 e8 3c 2c 8b 17 3b 4b b4 ad 3c
       0.0062508667 0.028338127 0.0023123724 0.021204134
000310 3b e7 52 3c fc cc 2a bc ee cf 0b 3c 34 ea c9 3c
       0.012872512 -0.010424849 0.008533461 0.02464781
000320 40 ed a9 3c 17 36 46 3c d7 99 0a 3d 42 33 f2 bc
       0.020743012 0.012097857 0.03383812 -0.029565457
000330 f7 e3 9b 3c af df e3 bc ab a7 a7 bb 29 12 f6 bc
       0.0190296 -0.027816622 -0.005116423 -0.030037956
000340 1f 81 92 bc 19 79 d2 3c a8 90 7a 3c f2 a2 c6 bc
       -0.017883835 0.02569251 0.015293278 -0.02424762
000350 3b 42 62 3c 0f 3f a0 3c 4b f7 2b 3d 6d aa 9c bc
       0.013809736 0.019561319 0.041983884 -0.019124234
000360 ec 5e 9c bc 7c 00 3f 3d fa 2c 14 bc e7 f6 49 bc
       -0.019088231 0.04663132 -0.009043926 -0.0123269325
000370 f7 5b 8b 3d 3d fe a2 bc c0 7e 77 3c d9 2a a1 bc
       0.0680465 -0.01989662 0.015105903 -0.019673752
000380 c0 06 79 bd b8 a6 ba 3c 0a 4c 21 bd 43 19 1b bd
       -0.060797453 0.022784576 -0.039379157 -0.03786589
000390 45 b2 a6 3c d6 e7 e2 3c f4 e2 52 bc 2d 3f b3 bc
       0.020348677 0.027698439 -0.012871493 -0.02188071
0003a0 6a 6d 26 3b d2 70 b9 ba 91 a9 bb bb ca 46 44 bd
       0.0025394806 -0.0014148003 -0.005727001 -0.047919072
0003b0 3a 0b 9f bd 41 36 4d bc c1 31 2b bd 85 10 41 3d
       -0.07765813 -0.012525142 -0.041795496 0.047134895
0003c0 6f 5c 16 3d 65 03 2a bd 80 bc 41 bd 1e c4 8a 3d
       0.036709245 -0.041507144 -0.04729891 0.06775688
0003d0 a4 96 b7 3c 31 d9 9f bd a0 97 84 bd b0 d1 d6 3c
       0.022410698 -0.07805098 -0.06474233 0.026223034
0003e0 a9 bc b1 bc a9 7b 29 bd 55 df e5 bc 4a 62 64 3d
       -0.021696405 -0.041377697 -0.028060595 0.0557578
0003f0 08 26 d5 bc 6e 72 d5 bb 3f 2a 9c bc c4 fb ea 3c
       -0.026019111 -0.006513885 -0.019063113 0.028684504
